…
ithmetic repo, because the OpenCLIP models (of type <code>src.modeling.ImageEncoder</code>) include the embedding layer for text tokens, while the HuggingFace CLIP vision models do not. Therefore, the relative parameter count of the upscaled model using Transformer CLIP vision models will be larger than the OpenCLIP models.</p> OpenCLIP models of type <code>src.modeling.ImageEncoder</code>Transfomers CLIP vision model of type <code>transformers.models.clip.modeling_clip.CLIPVisionModel</code> <pre><code>ImageEncoder( # (1)\n  (model): CLIP(\n    (visual): VisualTransformer( # (2)\n      (conv1): Conv2d(3, 768, kernel_size=(32, 32), stride=(32, 32), bias=False)\n      (ln_pre): LayerNorm((768,), eps=1e-05, elementwise_affine=True)\n      (transformer): Transformer(\n        (resblocks): ModuleList(\n          (0-11): 12 x ResidualAttentionBlock(\n            (ln_1): LayerNorm((768,), eps=1e-05, elementwise_affine=True)\n            (attn): MultiheadAttention(\n              (out_proj): NonDynamicallyQuantizableLinear(in_features=768, out_features=768, bias=True)\n            )\n            (ln_attn): Identity()\n            (ln_2): LayerNorm((768,), eps=1e-05, elementwise_affine=True)\n            (mlp): Sequential(\n              (c_fc): Linear(in_features=768, out_features=3072, bias=True)\n              (ln): Identity()\n              (gelu): QuickGELU()\n              (c_proj): Linear(in_features=3072, out_features=768, bias=True)\n            )\n          )\n        )\n      )\n      (ln_post): LayerNorm((768,), eps=1e-05, elementwise_affine=True)\n    )\n    (token_embedding): Embedding(49408, 512) # (3)\n    (ln_final): LayerNorm((512,), eps=1e-05, elementwise_affine=True)\n  )\n)\n</code></pre> <ol> <li>trainable params: 113.45M || all params: 113.45M || trainable%: 100.0000</li> <li>trainable params: 87.85M || all params: 87.85M || trainable%: 100.0000</li> <li>trainable params: 25.30M || all params: 25.30M || trainable%: 100.0000</li> </ol> <pre><code>CLIPVisionModel( # (1)\n  (vision_model): CLIPVisionTransformer(\n    (embeddings): CLIPVisionEmbeddings(\n      (patch_embedding): Conv2d(3, 768, kernel_size=(32, 32), stride=(32, 32), bias=False)\n      (position_embedding): Embedding(50, 768)\n    )\n    (pre_layrnorm): LayerNorm((768,), eps=1e-05, elementwise_affine=True)\n    (encoder): CLIPEncoder(\n      (layers): ModuleList(\n        (0-11): 12 x CLIPEncoderLayer(\n          (self_attn): CLIPAttention(\n            (k_proj): Linear(in_features=768, out_features=768, bias=True)\n            (v_proj): Linear(in_features=768, out_features=768, bias=True)\n            (q_proj): Linear(in_features=768, out_features=768, bias=True)\n            (out_proj): Linear(in_features=768, out_features=768, bias=True)\n          )\n          (layer_norm1): LayerNorm((768,), eps=1e-05, elementwise_affine=True)\n          (mlp): CLIPMLP(\n            (activation_fn): QuickGELUActivation()\n            (fc1): Linear(in_features=768, out_features=3072, bias=True)\n            (fc2): Linear(in_features=3072, out_features=768, bias=True)\n          )\n          (layer_norm2): LayerNorm((768,), eps=1e-05, elementwise_affine=True)\n        )\n      )\n    )\n    (post_layernorm): LayerNorm((768,), eps=1e-05, elementwise_affine=True)\n  )\n)\n</code></pre> <ol> <li>trainable params: 87.85M || all params: 87.85M || trainable%: 100.0000</li> </ol>"},{"location":"algorithms/weight_ensembling_moe/#loss-landscape-visualization","title":"Loss Landscape Visualization","text":"Visualization of the joint loss \\(\\mathcal{L}_1 + \\mathcal{L}_2\\) and five task pairs for CLIP-ViT-B/32 in the l
…
